…
<keras.layers.convolutional.Conv2D object at 0x7f914ce3deb8> False
<keras.layers.pooling.MaxPooling2D object at 0x7f914ce44b00> False
<keras.layers.core.Flatten object at 0x7f914ce44940> True
<keras.layers.core.Dense object at 0x7f914ce44ba8> True
<keras.layers.core.Dense object at 0x7f914ce594e0> True
<keras.layers.core.Dense object at 0x7f914ce59a58> True
Model: "model_1"
_________________________________________________________________
Layer (type)                 Output Shape              Param #   
=================================================================
input_1 (InputLayer)         (None, 96, 64, 1)         0         
_________________________________________________________________
conv1 (Conv2D)               (None, 96, 64, 64)        640       
_________________________________________________________________
pool1 (MaxPooling2D)         (None, 48, 32, 64)        0         
_________________________________________________________________
conv2 (Conv2D)               (None, 48, 32, 128)       73856     
_________________________________________________________________
pool2 (MaxPooling2D)         (None, 24, 16, 128)       0         
_________________________________________________________________
conv3/conv3_1 (Conv2D)       (None, 24, 16, 256)       295168    
_________________________________________________________________
conv3/conv3_2 (Conv2D)       (None, 24, 16, 256)       590080    
_________________________________________________________________
pool3 (MaxPooling2D)         (None, 12, 8, 256)        0         
_________________________________________________________________
conv4/conv4_1 (Conv2D)       (None, 12, 8, 512)        1180160   
_________________________________________________________________
conv4/conv4_2 (Conv2D)       (None, 12, 8, 512)        2359808   
_________________________________________________________________
pool4 (MaxPooling2D)         (None, 6, 4, 512)         0         
_________________________________________________________________
flatten_ (Flatten)           (None, 12288)             0         
_________________________________________________________________
vggish_fc1/fc1_1 (Dense)     (None, 4096)              50335744  
_________________________________________________________________
vggish_fc1/fc1_2 (Dense)     (None, 4096)              16781312  
_________________________________________________________________
vggish_fc2 (Dense)           (None, 128)               524416    
_________________________________________________________________
dense_1 (Dense)              (None, 15)                1935      
=================================================================
Total params: 72,143,119
Trainable params: 67,643,407
Non-trainable params: 4,499,712
_________________________________________________________________
None
(7470, 96, 64, 1) train fold shape
(707, 96, 64, 1) test fold shape
Train on 6723 samples, validate on 747 samples
Epoch 1/20
 - 50s - loss: 0.3717 - accuracy: 0.8852 - val_loss: 0.1194 - val_accuracy: 0.9719
…
