…
unds=True, spec_augment=False, trainable_layers=0)
Getting RealSounds set...
Getting RealSounds set...
Loaded FreeSounds train set and RealSounds test set!
Number of files in training set: 204
Number of files in testing set: 56
Directory used for training: Dataset/FreeSoundsAugmentedSpectrograms
Directory used for testing: Dataset/RealSoundsSpectrograms
Model: "model_1"
_________________________________________________________________
Layer (type)                 Output Shape              Param #   
=================================================================
input_1 (InputLayer)         (None, 96, 64, 1)         0         
_________________________________________________________________
conv1 (Conv2D)               (None, 96, 64, 64)        640       
_________________________________________________________________
pool1 (MaxPooling2D)         (None, 48, 32, 64)        0         
_________________________________________________________________
conv2 (Conv2D)               (None, 48, 32, 128)       73856     
_________________________________________________________________
pool2 (MaxPooling2D)         (None, 24, 16, 128)       0         
_________________________________________________________________
conv3/conv3_1 (Conv2D)       (None, 24, 16, 256)       295168    
_________________________________________________________________
conv3/conv3_2 (Conv2D)       (None, 24, 16, 256)       590080    
_________________________________________________________________
pool3 (MaxPooling2D)         (None, 12, 8, 256)        0         
_________________________________________________________________
conv4/conv4_1 (Conv2D)       (None, 12, 8, 512)        1180160   
_________________________________________________________________
conv4/conv4_2 (Conv2D)       (None, 12, 8, 512)        2359808   
_________________________________________________________________
pool4 (MaxPooling2D)         (None, 6, 4, 512)         0         
_________________________________________________________________
flatten_ (Flatten)           (None, 12288)             0         
_________________________________________________________________
vggish_fc1/fc1_1 (Dense)     (None, 4096)              50335744  
_________________________________________________________________
vggish_fc1/fc1_2 (Dense)     (None, 4096)              16781312  
_________________________________________________________________
vggish_fc2 (Dense)           (None, 128)               524416    
_________________________________________________________________
dense_1 (Dense)              (None, 15)                1935      
=================================================================
Total params: 72,143,119
Trainable params: 67,643,407
Non-trainable params: 4,499,712
_________________________________________________________________
None
Model: "model_1"
_________________________________________________________________
Layer (type)                 Output Shape              Param #   
=================================================================
input_1 (InputLayer)         (None, 96, 64, 1)         0         
_________________________________________________________________
conv1 (Conv2D)               (None, 96, 64, 64)        640       
_________________________________________________________________
pool1 (MaxPooling2D)         (None, 48, 32, 64)        0         
_________________________________________________________________
conv2 (Conv2D)               (None, 48, 32, 128)       73856     
_________________________________________________________________
pool2 (MaxPooling2D)         (None, 24, 16, 128)       0         
_________________________________________________________________
conv3/conv3_1 (Conv2D)       (None, 24, 16, 256)       295168    
_________________________________________________________________
conv3/conv3_2 (Conv2D)       (None, 24, 16, 256)       590080    
_________________________________________________________________
pool3 (MaxPooling2D)         (None, 12, 8, 256)        0         
_________________________________________________________________
conv4/conv4_1 (Conv2D)       (None, 12, 8, 512)        1180160   
_________________________________________________________________
conv4/conv4_2 (Conv2D)       (None, 12, 8, 512)        2359808   
_________________________________________________________________
pool4 (MaxPooling2D)         (None, 6, 4, 512)         0         
_________________________________________________________________
flatten_ (Flatten)           (None, 12288)             0         
_________________________________________________________________
vggish_fc1/fc1_1 (Dense)     (None, 4096)              50335744  
_________________________________________________________________
vggish_fc1/fc1_2 (Dense)     (None, 4096)              16781312  
_________________________________________________________________
vggish_fc2 (Dense)           (None, 128)               524416    
=================================================================
Total params: 72,141,184
Trainable params: 0
Non-trainable params: 72,141,184
_________________________________________________________________
(16245, 96, 64, 1) train fold shape
(953, 96, 64, 1) test fold shape
X train extracted features shape (16245, 128)
max example len 568
all features shape after padding (204, 568, 128)
X test extracted features shape (953, 128)
max example len 568
Compiling ...
Model: "sequential_1"
_________________________________________________________________
Layer (type)                 Output Shape              Param #   
=================================================================
lstm_1 (LSTM)                (None, 568, 64)           49408     
_________________________________________________________________
lstm_2 (LSTM)                (None, 568, 64)           33024     
_________________________________________________________________
dropout_1 (Dropout)          (None, 568, 64)           0         
_________________________________________________________________
flatten_1 (Flatten)          (None, 36352)             0         
_________________________________________________________________
dense_1 (Dense)              (None, 15)                545295    
=================================================================
Total params: 627,727
Trainable params: 627,727
Non-trainable params: 0
_________________________________________________________________
None
all features shape: (204, 568, 128)
a feature shape: (568, 128)
Train on 163 samples, validate on 41 samples
Epoch 1/10
 - 107s - loss: 1.0468 - accuracy: 0.7791 - val_loss: 0.0307 - val_accuracy: 1.0000
…
