…
<keras.layers.convolutional.Conv2D object at 0x7f1f140b50f0> False
<keras.layers.pooling.MaxPooling2D object at 0x7f1f140b5d68> False
<keras.layers.core.Flatten object at 0x7f1f140b5ba8> True
<keras.layers.core.Dense object at 0x7f1f140b5e10> True
<keras.layers.core.Dense object at 0x7f1f140c5240> True
<keras.layers.core.Dense object at 0x7f1f140c5c88> True
Model: "model_1"
_________________________________________________________________
Layer (type)                 Output Shape              Param #   
=================================================================
input_1 (InputLayer)         (None, 96, 64, 1)         0         
_________________________________________________________________
conv1 (Conv2D)               (None, 96, 64, 64)        640       
_________________________________________________________________
pool1 (MaxPooling2D)         (None, 48, 32, 64)        0         
_________________________________________________________________
conv2 (Conv2D)               (None, 48, 32, 128)       73856     
_________________________________________________________________
pool2 (MaxPooling2D)         (None, 24, 16, 128)       0         
_________________________________________________________________
conv3/conv3_1 (Conv2D)       (None, 24, 16, 256)       295168    
_________________________________________________________________
conv3/conv3_2 (Conv2D)       (None, 24, 16, 256)       590080    
_________________________________________________________________
pool3 (MaxPooling2D)         (None, 12, 8, 256)        0         
_________________________________________________________________
conv4/conv4_1 (Conv2D)       (None, 12, 8, 512)        1180160   
_________________________________________________________________
conv4/conv4_2 (Conv2D)       (None, 12, 8, 512)        2359808   
_________________________________________________________________
pool4 (MaxPooling2D)         (None, 6, 4, 512)         0         
_________________________________________________________________
flatten_ (Flatten)           (None, 12288)             0         
_________________________________________________________________
vggish_fc1/fc1_1 (Dense)     (None, 4096)              50335744  
_________________________________________________________________
vggish_fc1/fc1_2 (Dense)     (None, 4096)              16781312  
_________________________________________________________________
vggish_fc2 (Dense)           (None, 128)               524416    
_________________________________________________________________
dense_1 (Dense)              (None, 15)                1935      
=================================================================
Total params: 72,143,119
Trainable params: 67,643,407
Non-trainable params: 4,499,712
_________________________________________________________________
None
(48735, 96, 64, 1) train fold shape
(445, 96, 64, 1) test fold shape
Train on 43861 samples, validate on 4874 samples
Epoch 1/20
 - 319s - loss: 0.2684 - accuracy: 0.9335 - val_loss: 0.1309 - val_accuracy: 0.9750
…
